save_model/tflite/test.tflite (tflite, 47952 bytes, 6 tensors)

sequential/conv1d_2/BiasAdd;sequential/conv1d_2/conv1d/Squeeze;sequential/conv1d_2/BiasAdd/ReadVariableOp/resource;sequential/conv1d_2/conv1d f4 [16]
000000 00 00 00 00 00 00 00 00 00 00 00 00 00 00 00 00
       0.0 0.0 0.0 0.0
000010 00 00 00 00 00 00 00 00 00 00 00 00 00 00 00 00
       0.0 0.0 0.0 0.0
000020 00 00 00 00 00 00 00 00 00 00 00 00 00 00 00 00
       0.0 0.0 0.0 0.0
000030 00 00 00 00 00 00 00 00 00 00 00 00 00 00 00 00
       0.0 0.0 0.0 0.0

sequential/conv1d_2/conv1d f4 [16, 1, 5, 32]
000000 0f fc 18 be 30 3e d3 bd 55 e4 1a be 82 f3 cc 3d
       -0.14939903 -0.10314596 -0.15126164 0.10007383
000010 23 88 0c 3e 5c d8 ae 3d f0 76 9b 3c a4 5b da bd
       0.13723807 0.08537361 0.018977612 -0.1066201
000020 da 93 da 3d 0a 4a e2 bd a0 97 fa bc 37 d1 b9 bd
       0.10672732 -0.11049278 -0.030589879 -0.09073108
000030 d2 53 e8 bd aa b2 00 be 26 7f d5 3d 4b d4 15 be
       -0.113441125 -0.12568155 0.10424642 -0.14631765
000040 f2 d9 e5 bd dc 8f 90 bd 36 31 57 bd 06 b9 11 be
       -0.112232104 -0.07058689 -0.052537166 -0.14230737
000050 de 20 cb bd 2d 5c 1d 3e 26 f2 ad 3d 4c a9 b7 bd
       -0.09918378 0.15367194 0.08493452 -0.08967838
000060 38 d6 a3 bd e0 de f8 3c 8b b3 10 be 80 57 89 bb
       -0.07999843 0.030379713 -0.1413099 -0.004191339
000070 82 a3 24 bd 56 d9 42 bd f4 02 52 3d 56 43 01 be
       -0.040194996 -0.04757055 0.051272348 -0.12623343
000080 de 70 a6 3d c1 de 09 3e 60 56 5f bd b1 3d 85 bd
       0.081269965 0.1346388 -0.054525733 -0.06505907
000090 43 42 b3 bd fc 4d 0c 3d fa de e7 bd 6c 93 db bd
       -0.08752873 0.03425406 -0.11321826 -0.10721478
0000a0 38 40 12 bd c2 3d e7 3d 0e 36 94 bd aa 38 fb 3d
       -0.035705775 0.11291076 -0.072368726 0.12266667
0000b0 d4 0a 17 bd 5a 67 b8 bd 24 53 0b be 1a 2a 91 3d
       -0.03687556 -0.09004088 -0.13605934 0.07088108
0000c0 8c 7a 92 3d 40 2f b0 bc 10 0e cc 3c 00 80 25 3d
       0.0715228 -0.021506906 0.02490905 0.040405273
0000d0 c0 89 5a bc 50 25 c4 bd e4 62 07 be 08 d1 a3 3c
       -0.013338506 -0.09577429 -0.13221318 0.019997135
0000e0 1c 6d 44 3d c0 83 39 3b 00 29 b7 3a 80 f1 89 bb
       0.047955617 0.002830729 0.0013974011 -0.0042096972
0000f0 c8 b4 b4 bd 7c 30 58 3d a6 70 f4 3d 2e c1 f2 bd
       -0.08823544 0.052780613 0.119355485 -0.11853252
000100 18 97 8d bd 12 5b fe 3d a8 f1 a4 bc 44 7d ab 3d
       -0.069135845 0.12419714 -0.020134762 0.08373502
000110 a0 5c bc 3c 46 46 06 be dc 6b 5e 3d 12 e6 0d bd
       0.022993386 -0.13112745 0.05430208 -0.03464324
000120 38 2d 6e 3d 60 80 ea bb 83 b8 06 3e f2 70 86 3d
       0.058148593 -0.007156417 0.13156323 0.06564511
000130 2e f5 18 be b8 be 9a 3c ad 47 17 3e 4e 40 e4 3d
       -0.14937279 0.01888977 0.14773436 0.11145078
000140 08 e7 12 be c8 d8 80 3c 2b eb bd bd 00 34 9f 39
       -0.14345944 0.01572837 -0.0927337 0.00030365586
000150 6a df c1 bd 31 d2 16 3e 00 ec 4a bb ce 3f 5c bd
       -0.09466441 0.14728619 -0.003096342 -0.053771786
000160 5e 51 e7 bd be 52 e3 bd 61 6c 09 3e 48 a7 ba 3d
       -0.112948164 -0.11099766 0.1342025 0.091139376
000170 bb 24 07 3e 10 88 f6 bd 46 b6 be 3d 13 df a0 bd
       0.13197605 -0.120376706 0.0931211 -0.07855048
000180 10 41 68 3d a6 cc 86 3d 3b a6 20 3e 56 93 33 bd
       0.056702673 0.06582002 0.15688412 -0.043841682
000190 79 c7 00 3e ba d7 d5 3d 5d 0e 0b 3e 52 d5 d5 3d
       0.12576093 0.10441537 0.13579698 0.10441078
0001a0 b8 01 0c be d6 fc e3 3d de a6 fc 3d f0 e3 49 3c
       -0.1367253 0.11132209 0.12336515 0.012322411
0001b0 fe 54 d3 3d 80 f6 9a bb 19 35 16 3e 94 13 44 3d
       0.10318945 -0.004729092 0.14668693 0.047870234
0001c0 14 78 43 bd 2e b3 c1 bd de 81 c9 3d 9a c7 84 3d
       -0.047721937 -0.09458004 0.09839223 0.064833835
0001d0 0f 48 fe bd 7a 37 ff 3d f8 0e a5 3d 50 c8 82 bc
       -0.12416088 0.12461753 0.08059496 -0.015964657
0001e0 32 f8 d4 3d 45 8b 20 3e 25 08 03 3e 14 f0 21 bd
       0.10398902 0.15678127 0.12796076 -0.039535597
0001f0 d8 a7 96 3c 24 76 d6 bd 70 96 a6 3d 84 e6 24 3d
       0.018390581 -0.10471752 0.081341624 0.0402589
000200 f6 00 ed bd 00 e4 d1 bc a0 fa 0d 3d 61 01 00 3e
       -0.11572449 -0.025621414 0.034662843 0.12500526
000210 b4 c1 53 3d 40 70 6a 3c 8d 89 96 bd f7 70 0b be
       0.0516984 0.014308989 -0.073504545 -0.13617311
000220 35 86 05 be b0 62 db bc 18 a4 59 bd 21 5a 08 be
       -0.13039477 -0.026780456 -0.053135008 -0.13315631
000230 54 80 91 3d 58 e1 ba 3d a0 bc bf 3c 7a db a6 3d
       0.07104555 0.09125012 0.023405373 0.081473306
000240 10 6e e2 bc 40 27 81 3b 8c 32 f6 bd 5e 76 f8 3d
       -0.027640373 0.0039414465 -0.1202136 0.12131952
000250 ad a5 16 3e 86 d5 99 bd dc 3c 38 3d 90 17 a8 3d
       0.14711638 -0.075114295 0.044979915 0.08207619
000260 ae db 5b bd da 19 14 be 26 5f 98 bd 10 7c 26 3c
       -0.0536763 -0.14462987 -0.07440023 0.010161415
000270 80 db a5 bc 3b 4d 06 be e8 9a b3 3d 34 89 08 3d
       -0.020246267 -0.13115399 0.087697804 0.033333972
000280 57 70 1f 3e 88 4b ec 3c 0e 52 b0 bd 13 3f 08 3e
       0.15570198 0.02884461 -0.08609401 0.13305311
000290 5c e4 79 3d b5 bf 09 3e 60 d0 fb bc e8 6f 84 bd
       0.061008796 0.13452037 -0.03073901 -0.06466657
0002a0 5b 9e 1d 3e ea da d1 3d 60 99 01 3c 7c 92 fa bd
       0.15392439 0.10246833 0.007910103 -0.12234971
0002b0 fc 10 df bd 70 88 9e bc 28 b7 a4 bc 3e eb ed 3d
       -0.108919114 -0.019352168 -0.020106867 0.116171345
0002c0 60 90 07 bd a0 fe b4 3b c0 56 9c bc 7f 5a 08 be
       -0.03309667 0.0055235177 -0.019084334 -0.13315772
0002d0 de ad 27 bd ae 89 45 bd f4 be 43 bd 90 c0 5f 3c
       -0.040937297 -0.048227005 -0.04778953 0.01365675
0002e0 ee 71 a9 bd 54 74 aa bd f4 09 26 bd 68 b1 ca bc
       -0.082736835 -0.08322969 -0.040536836 -0.024742797
0002f0 0e 9b cf 3d d4 7c 4b bd 58 aa bd bd f1 a8 c4 bd
       0.10136996 -0.049679592 -0.09261006 -0.096025355
000300 38 68 90 bc 3e 65 c2 3d 34 c8 60 bd 60 7b ca bb
       -0.01762782 0.09491967 -0.05487843 -0.006179258
000310 0a 52 0a be ab bb 03 3e cf 82 01 3e 53 f2 90 bd
       -0.13507858 0.12864558 0.12647556 -0.0707747
000320 76 d1 1f be a0 d2 b7 bd c1 ad ec bd 3c b9 9e 3d
       -0.15607247 -0.089757204 -0.115565784 0.077501744
000330 00 14 79 bc 55 a0 08 be ac 47 f9 bd 08 7d 14 bd
       -0.015202522 -0.13342412 -0.121718735 -0.03625205
000340 ea fd d8 bd 28 46 1d bd dc 97 b6 3d ee ac 3d bd
       -0.10595305 -0.038396984 0.089156836 -0.046307497
000350 0d 0e 1a 3e f4 82 8a 3d 24 1f 80 3d d8 dd fe bc
       0.15044422 0.067632586 0.062559396 -0.031111643
000360 76 61 d1 3d 60 84 92 3b 8c 13 30 3d 74 55 4c 3d
       0.10223667 0.0044713467 0.04298739 0.049886182
000370 5c e8 ea bd 70 f7 0f 3d 02 46 f1 3d 50 c2 aa 3c
       -0.114701 0.035148084 0.11780931 0.020844609
000380 49 47 0e 3e b8 86 ad bc 30 5b ba bd 80 f2 d2 bb
       0.1389438 -0.021182403 -0.09099424 -0.0064375997
000390 90 74 86 bd b7 5c ae bd 3d 0b a6 bd d8 98 f3 bd
       -0.06565201 -0.08513778 -0.08107612 -0.11894387
0003a0 48 74 8b bc 93 98 1f 3e 00 3d 1b 3c 18 1e a0 3d
       -0.01702322 0.15585546 0.009474993 0.0781824
0003b0 56 48 ea 3d 15 43 11 3e e6 ff 7a bd 2b 79 06 3e
       0.11439578 0.14185746 -0.0612792 0.1313216
0003c0 84 de 1e be 40 f1 e3 bb 56 4c 85 bd 12 bb 3b bd
       -0.1551457 -0.0069562495 -0.065087005 -0.0458327
0003d0 c8 01 9e bd 6f 86 09 3e 89 fd 02 3e ad f3 10 3e
       -0.077151835 0.13430189 0.12792028 0.14155455
0003e0 00 4f 1b ba 9e fb e0 3d 5a 3c bd 3d be 18 c4 3d
       -0.00059245527 0.10985492 0.09240027 0.09575032
0003f0 80 eb b9 3d e0 c5 00 bd 65 56 0b 3e b6 45 6c bd
       0.09078121 -0.03143871 0.13607176 -0.05768367

sequential/conv1d_1/conv1d f4 [32, 1, 3, 32]
000000 0b 39 85 bd 80 49 35 3b 80 12 c9 3b c9 0f 05 be
       -0.06505021 0.0027662218 0.0061362386 -0.12994303
000010 4a 40 c3 3d fe d6 ba 3d 88 a5 a9 bc fd ec 94 bd
       0.095337465 0.09123038 -0.020708814 -0.072717644
000020 5c ad 32 bd 45 70 0c be ef 7a 08 3e d4 8c 78 bd
       -0.04362236 -0.13714702 0.13328145 -0.06068118
000030 f8 bc 3a bd 34 05 92 3d 39 09 03 3e 11 54 16 3e
       -0.04559037 0.07129899 0.12796487 0.14680506
000040 56 6e 8e 3d ba 43 cf 3d 00 dd f4 3a 98 81 9a 3c
       0.06954639 0.1012034 0.0018681586 0.018860623
000050 40 cb 93 bc 6e 69 93 3d 20 37 14 3d e8 0b 92 3c
       -0.018041253 0.071978435 0.036185384 0.017827943
000060 61 5f 1d 3e 04 0f 2a be da 3d ea 3d f4 ce 66 3d
       0.15368415 -0.1660729 0.114375785 0.05634971
000070 a5 51 2d 3e 26 2c 1e be 67 16 23 be 68 18 02 be
       0.16925676 -0.15446529 -0.15926515 -0.12704623
000080 84 f8 26 bd 9b fd 1e 3e 80 c8 c4 3c 46 73 c6 3d
       -0.040764347 0.1552643 0.024021387 0.096899554
000090 40 39 3c bc 3f 86 05 3e 40 c6 ed bd 65 ba 2f 3e
       -0.011488259 0.13039492 -0.11610079 0.17160948
0000a0 46 9c b0 3d 3d 05 02 be 6a ba e2 3d c9 e4 88 bd
       0.08623557 -0.12697311 0.11070712 -0.06684262
0000b0 88 6c f3 3c 73 09 19 3e 58 20 7e bd a5 c7 1a be
       0.029714838 0.14945011 -0.062042564 -0.15115221
0000c0 03 b0 31 be b3 dc 34 3e 30 48 ac bc 6e 36 93 3d
       -0.173523 0.17662315 -0.021030515 0.07188116
0000d0 db c9 13 3e c8 7a d2 bc 4f c8 15 3e b3 0c 17 3e
       0.1443247 -0.025693312 0.14627193 0.14750938
0000e0 90 d5 5b 3d 6d 6e 0e 3e f4 c2 95 bd 0f ef 31 3e
       0.053670466 0.13909312 -0.07312575 0.1737635
0000f0 f2 ec a3 3d 42 6a e9 bd 85 c4 c8 bd b5 3d f6 bd
       0.08004178 -0.1139722 -0.09803108 -0.120234884
000100 e7 0a 18 be a0 36 7d 3c d9 2d 27 3e bc 38 95 bd
       -0.14847909 0.015454918 0.16326083 -0.07286212
000110 80 67 5f 3d 23 0e 21 be cc b3 16 3d d0 c6 72 3c
       0.054542065 -0.15728049 0.03679256 0.014817908
000120 00 22 c3 bc a1 65 1f 3e ce 60 c2 3d 37 3c 15 be
       -0.023819923 0.15566112 0.0949112 -0.14573751
000130 53 c0 d4 bd 19 d3 03 3e 10 f0 8b 3c 6c b3 8c 3d
       -0.103882454 0.12873496 0.017082244 0.068701595
000140 00 84 39 3b bc 8b 57 3d 70 ec 8e 3c bd 46 b4 bd
       0.0028307438 0.052623495 0.017446727 -0.08802555
000150 60 24 9e bb 8c 09 47 3d 4e 4e 02 be 60 79 65 3d
       -0.0048261136 0.04859309 -0.12725183 0.056023955
000160 4f 91 25 3e b6 fa 74 bd 83 ce bf bd cd fa 1c 3e
       0.16168712 -0.05980941 -0.09365561 0.15330048
000170 d0 a9 db bc a9 99 98 bd 40 18 ef 3b 55 2e 27 3e
       -0.026814371 -0.07451183 0.007296592 0.16326268
000180 10 87 bf bc 2a bd a6 3d 9c 13 1a be 26 44 ce 3d
       -0.023379833 0.08141549 -0.15046543 0.10071592
000190 1e bf db 3d d2 5a d5 3d b8 94 e0 bc 30 df 52 bd
       0.10729812 0.10417713 -0.027414665 -0.05148238
0001a0 00 ba a0 bc 40 57 66 bc b0 33 12 bc 24 1b 27 be
       -0.019619942 -0.014058888 -0.008923456 -0.16318947
0001b0 47 7a 10 3e 5b f7 1b 3e 6f 86 2f 3e 40 d2 86 3b
       0.14109145 0.15231077 0.17141126 0.004114419
0001c0 20 30 a8 3b 34 52 10 bd 83 3d 10 3e 88 e2 2f 3d
       0.00513269 -0.035234645 0.14085965 0.042940646
0001d0 af 05 01 3e 74 30 01 be c0 c1 8c bb 2f e2 11 3e
       0.12599824 -0.1261614 -0.0042955577 0.14246438
0001e0 25 35 19 3e b8 a6 14 be 3a 25 ed bd 70 31 77 3c
       0.1496168 -0.14516723 -0.11579366 0.01508747
0001f0 45 12 cb bd f2 44 a4 3d b8 df 13 3d 17 47 02 3e
       -0.09915594 0.08020963 0.036102027 0.12722431
000200 dc 88 3f bd 2f d3 2e be b2 6d 96 3d f0 37 88 3c
       -0.04676138 -0.17072748 0.073451415 0.016628236
000210 18 23 16 3d 14 fe bc bd 00 2d a8 3a b0 b6 b9 3c
       0.03665456 -0.09228149 0.0012830794 0.02267012
000220 85 ba 31 3e dd 2a 1a 3e 48 d8 0e be e4 30 75 3d
       0.17356308 0.15055414 -0.13949692 0.05986108
000230 a7 1c 0d 3e 38 2b 2d bd ae 7a ce 3d ff da 15 3e
       0.13780461 -0.042277545 0.10081993 0.14634322
000240 6d 47 bc bd ec 14 7d 3d 28 d7 8d bc be b2 f7 3d
       -0.09193311 0.06178753 -0.017314509 0.12094639
000250 a0 20 e5 3b d8 db 1a be b3 f7 2c be 18 a5 e3 bc
       0.0069924146 -0.15122926 -0.16891365 -0.027788684
000260 42 8b f7 3d 90 74 c9 3c 87 90 07 3e 92 dc 98 bd
       0.12087108 0.024591714 0.13238727 -0.074639454
000270 92 a5 9f 3d 60 cc 8d 3c 00 cf 18 bd 56 2a fc 3d
       0.07795252 0.017309368 -0.037306786 0.123127624
000280 7e 54 d8 bd 1e e6 b5 bd 44 28 09 bd cd 15 24 3e
       -0.105629906 -0.08881782 -0.033485666 0.16023941
000290 0a 4d 9a bd 1e d1 fd 3d 80 74 fe bb d2 44 22 be
       -0.07534225 0.123934016 -0.0077653527 -0.15846565
0002a0 00 b6 f9 bb 1d 63 09 3e f1 60 00 be 0a ab f3 3d
       -0.007620573 0.13416715 -0.1253698 0.118978575
0002b0 60 73 03 be b8 04 66 3d fb 9e 08 3e f8 b4 83 3d
       -0.12836981 0.056156844 0.13341896 0.064310014
0002c0 ef a8 09 3e 92 61 e5 3d 00 3f 29 3d 80 7e 38 bb
       0.1344335 0.11200251 0.041319847 -0.0028151572
0002d0 a8 cb 11 be d4 b5 04 3d 28 56 bf 3c 0a 2a 9b 3d
       -0.14237845 0.032399967 0.023356512 0.07576378
0002e0 bb be 06 3e fe ab d4 3d e4 de 1c bd 8c a9 be bd
       0.13158695 0.103843674 -0.038298503 -0.09309682
0002f0 8e 02 ae bd 6e 0b f4 3d 78 79 9a bc 4b 28 89 bd
       -0.08496581 0.119162425 -0.018856749 -0.066971384
000300 df 61 00 be 44 09 b8 bd 2c 80 7f bd b9 ca 02 3e
       -0.12537335 -0.08986142 -0.062378094 0.12772645
000310 46 23 cd 3d 48 af c2 3c f1 30 03 3e cd 89 15 be
       0.100164935 0.023765221 0.12811638 -0.14603348
000320 50 10 2d 3c 90 cb 84 3c 8e cb e0 3d 2e 3b fd 3d
       0.010562971 0.016210347 0.10976325 0.12364803
000330 52 17 6e bd 60 f8 be 3c 71 90 2e be e8 7e 5e bd
       -0.05812771 0.023311794 -0.17047288 -0.054320246
000340 97 46 07 3e d0 c9 df bd 34 ba 17 be 22 03 d4 3d
       0.13210522 -0.109271646 -0.14817125 0.1035216
000350 0c bb 29 be 2e c4 11 be 56 5f cb 3d 2a 73 bd 3d
       -0.16575259 -0.14234993 0.09930293 0.092504814
000360 69 9e 29 be 60 9f ad 3b d0 04 05 be f0 bc a9 3c
       -0.16564335 0.00529854 -0.12990117 0.020719975
000370 3e 2e c3 bd 6f 7e 2f 3e de 61 68 bd d0 d0 dd bc
       -0.09530304 0.17138074 -0.05673396 -0.027077109
000380 9c 33 25 3d c8 45 30 bd 85 f4 9d bd 8e 2a 98 bd
       0.04033242 -0.0430353 -0.07712654 -0.07429992
000390 6c e1 ea bd f4 4c 8d bd 5a 42 cb bd 80 fe 43 3c
       -0.11468777 -0.06899443 -0.09924765 0.011962533
0003a0 94 7f bb bd 18 ed 79 bd f0 96 30 be f8 f3 c1 bc
       -0.09155193 -0.061017126 -0.17245078 -0.023675904
0003b0 2c 3e 66 3d 9f 3e 05 3e 17 5e 82 bd 60 16 16 bd
       0.056211635 0.1301217 -0.063656025 -0.036642432
0003c0 98 ff af 3c c5 6a 29 be 2c 9f 96 bd 78 24 85 3d
       0.021484181 -0.16544636 -0.073545784 0.065010965
0003d0 20 57 58 bd b0 0c 30 3c a0 10 8f 3b 6a ae 96 3d
       -0.052817464 0.010745212 0.0043659955 0.073574856
0003e0 de 5b 92 3d 7f fc 15 3e d0 6f 7f 3d 0c a3 09 bd
       0.071464285 0.14647101 0.062362492 -0.03360276
0003f0 e7 75 a1 bd d0 6e 98 bd 6e 57 f0 3d e0 6c f3 3c
       -0.07883816 -0.07443011 0.11735426 0.029715002

sequential/conv1d/conv1d f4 [32, 1, 3, 32]
000000 bb 27 22 be 58 e4 42 bd 74 e9 4e bd 00 78 6e bb
       -0.15835468 -0.047581047 -0.050515607 -0.0036387444
000010 a1 c0 0d 3e 00 f1 65 3a 16 95 ba 3d c7 e7 a8 bd
       0.13843013 0.00087715685 0.09110467 -0.08247333
000020 c5 77 02 3e 53 07 09 be 3c f9 02 be 00 86 4e 3c
       0.12741001 -0.133817 -0.12790388 0.01260519
000030 a2 d2 b7 3d 8f 8d 8e bd e0 73 4f bd 07 ca 06 3e
       0.08975722 -0.06960594 -0.050647616 0.13163005
000040 13 36 86 bd 17 84 04 3e 17 7d 0b be 31 c8 02 3e
       -0.065532826 0.12941013 -0.13621937 0.1277168
000050 7a 89 f9 3d 08 c7 88 3c 37 ab 12 be 17 74 fe bd
       0.12184425 0.016696468 -0.14323126 -0.12424486
000060 a6 51 9d 3d 42 55 c0 3d 71 48 12 be ae 59 8d 3d
       0.07681589 0.09391262 -0.14285447 0.06901871
000070 f8 1d c8 3c 6b aa 12 3e 48 59 9a bd 0c 5d 07 3d
       0.024428353 0.14322822 -0.0753656 0.03304772
000080 e5 bf 21 3e 20 7a 11 bd 44 b5 e7 bd 0c fb 9b bd
       0.15795858 -0.035516858 -0.113138705 -0.07616243
000090 d4 f4 a1 bd aa 5e df 3d 7f 83 1a 3e 13 a8 17 be
       -0.079080254 0.109067276 0.15089224 -0.14810209
0000a0 f0 55 84 bc 23 00 27 3e d6 0e fe 3d e9 ec 10 3e
       -0.01615426 0.16308646 0.124051735 0.14152874
0000b0 20 d1 79 bd a0 d4 f1 3c ac 1d 25 be 8d 32 04 3e
       -0.060990453 0.029520333 -0.161246 0.12909909
0000c0 40 8a 3a bc ed d8 22 3e e0 f4 eb bc 02 59 b8 3d
       -0.0113855 0.15903063 -0.028803289 0.09001352
0000d0 37 2c 00 3e 90 7a a3 3c 40 10 8e 3d 02 66 9a 3d
       0.12516867 0.019955903 0.06936693 0.07538988
0000e0 c8 55 93 bd a2 f5 e8 3d 7c 22 77 3d 6c 22 88 bd
       -0.07194096 0.11374976 0.06033562 -0.066471905
0000f0 4b 3b 0c 3e f3 c5 06 be e6 38 e2 3d a0 2b 87 3b
       0.13694493 -0.13161449 0.11046009 0.0041250736
000100 c0 ec 24 3b 10 1f f7 3c 76 25 c9 bd 52 3d de 3d
       0.0025165528 0.030166179 -0.09821598 0.1085154
000110 46 c3 fd 3d 8a 76 bf 3d 1b a1 a5 bd 0c 39 06 be
       0.12390761 0.093487814 -0.08087369 -0.13107699
000120 4d d2 12 3e f6 97 d2 3d b8 0e d4 bc 96 90 7b bd
       0.14338036 0.102828905 -0.025885925 -0.061417185
000130 84 ca 0c be b0 3c 2d 3c 0b a1 ca bd f8 3e ba bc
       -0.13749129 0.010573551 -0.09893998 -0.022735104
000140 9c e3 2b 3d d1 a1 93 bd 60 18 cf 3b c3 06 1e 3e
       0.041965112 -0.072085984 0.0063200444 0.15432267
000150 57 41 1e 3e f4 70 3a 3d fa bb 8f 3d b8 61 30 3d
       0.15454613 0.045517877 0.070182756 0.04306194
000160 30 6b 89 bc 26 1c 99 3d c9 f1 24 be 29 35 2b 3e
       -0.016774744 0.07476072 -0.16107859 0.16719498
000170 56 e5 c3 3d 98 ba 7f bd 43 e8 20 3e a2 7e 1d be
       0.09565227 -0.06243381 0.15713601 -0.15380338
000180 54 86 13 be 25 ee 2c 3e 95 98 1f 3e 28 29 7a 3d
       -0.14406711 0.1688772 0.15585549 0.061074406
000190 76 a6 13 be 80 12 c7 3a ca 3d dd 3d 81 d7 2a be
       -0.14418969 0.0015188009 0.10802801 -0.1668377
0001a0 cb c3 17 3e 50 fa a2 bc fe 3f d6 3d 08 0a db bd
       0.14820783 -0.019894749 0.10461424 -0.10695273
0001b0 e8 a7 89 3d 00 6c 18 b9 af cc 1a be 74 dc 07 3d
       0.06721479 -0.00014536083 -0.15117143 0.033169225
0001c0 70 55 f7 3c a3 e8 25 3e 41 8b 16 be bc 4a 52 bd
       0.030192107 0.16202025 -0.14701559 -0.051340804
0001d0 10 e9 38 3c 8b 05 10 3e f3 1e 99 bd 60 49 a3 bb
       0.011286035 0.14064614 -0.07476606 -0.004983112
0001e0 fb c1 28 be 59 d2 32 be 42 51 81 bd 70 44 b0 bd
       -0.16480248 -0.17463054 -0.06314327 -0.086068034
0001f0 78 80 d4 3c 9c db 33 3d 81 55 26 be 34 6b 64 3d
       0.025940165 0.043910608 -0.16243555 0.0557663
000200 fd 75 1f 3e 10 55 69 3d 08 98 7c 3d 0c 76 25 be
       0.15572353 0.056965888 0.061668426 -0.16158313
000210 37 ea cd bd 80 46 24 be 3b e9 a1 bd d2 a0 f8 3d
       -0.100544386 -0.16042519 -0.07905813 0.12140049
000220 d8 53 48 bd c8 94 8a bc 48 30 3e bd f0 13 f1 bc
       -0.048908085 -0.016916648 -0.046432763 -0.029428452
000230 78 4d 14 be 38 82 f2 bc 09 4e a2 bd 1c d5 2b bd
       -0.14482677 -0.029603109 -0.0792504 -0.041951284
000240 a8 a8 89 bd 00 35 5c ba 3a 87 0c be 3f 6f 8d bd
       -0.06721622 -0.00084002316 -0.1372346 -0.06905984
000250 dc 7f 7a 3d 4e c9 f5 3d 16 20 da 3d c0 45 df bc
       0.061157092 0.120012864 0.10650651 -0.02725494
000260 00 04 e1 b9 7e 58 7d bd c1 85 24 be 5d a8 9f bd
       -0.00042918324 -0.06185197 -0.16066648 -0.077957846
000270 89 61 18 be c2 6c be 3d 5a 38 c8 3d 19 55 9b bd
       -0.14880957 0.09298088 0.09776373 -0.075845905
000280 c8 88 ba bc c0 8f 28 3c c8 fa 51 3d b6 bb ce 3d
       -0.0227703 0.010288179 0.051264554 0.10094397
000290 2f 84 b1 bd ba 4a e4 3d 6c fa 50 3d 80 89 72 3d
       -0.0866779 0.111470655 0.05102007 0.05921316
0002a0 cb 7b 2e 3e 20 b5 a4 3c ab ce f1 bd 28 11 0e 3d
       0.17039411 0.020105898 -0.11806997 0.03468433
0002b0 95 86 06 3e 9c 1f 00 be 67 9b ba bd 18 d6 17 3d
       0.13137276 -0.12512058 -0.09111672 0.03706941
0002c0 c6 72 b4 3d b8 a5 91 3d 67 81 a4 bd c8 ba a4 3c
       0.08810954 0.071116865 -0.08032494 0.020108595
0002d0 81 b6 04 be 88 a1 5a bd 1e 93 f8 3d c4 56 0d be
       -0.12960245 -0.053376704 0.121374354 -0.1380263
0002e0 f1 f9 00 3e 14 7e 10 3d 60 e3 90 3d b0 cc 02 be
       0.12595345 0.035276487 0.07074618 -0.12773395
0002f0 9c 36 ee bd 1c 19 0e be 83 46 08 3e 29 d8 14 3e
       -0.1163151 -0.13876766 0.13308148 0.14535584
000300 a7 05 34 3e 70 f8 5f 3c b8 1d 8b bd b6 b3 e4 3d
       0.17580281 0.013670072 -0.06792778 0.1116709
000310 3a 02 bb 3d b7 33 12 be ff 6c 28 be a0 f6 2d 3c
       0.09131284 -0.1427754 -0.16447829 0.010617882
000320 9c ec 6e 3d 5f 51 d9 bd 30 55 0c be bc 92 07 be
       0.058331117 -0.106112234 -0.13704371 -0.13239568
000330 78 fa 0c 3d 00 25 94 bb 2a 82 e5 bd 65 61 ae bd
       0.034418553 -0.0045210123 -0.112064674 -0.0851467
000340 aa 2a d4 3d eb 0f bc bd 00 bc 45 ba bf 65 17 3e
       0.103597 -0.091827236 -0.0007542968 0.14784907
000350 99 7f 9e bd 20 11 ed bc 9c a6 d3 bd 40 ab 8b 3b
       -0.07739181 -0.02893883 -0.103345126 0.004262358
000360 a9 d2 2b be b0 9d bf bc ac 44 06 be 71 31 22 be
       -0.16779579 -0.023390621 -0.13112134 -0.15839173
000370 e2 54 8e 3d 48 73 7d 3d 80 47 30 3b e0 9a 06 3c
       0.06949784 0.06187752 0.0026898086 0.008215636
000380 93 0d 27 be 3c 65 39 3d c0 cf 0c be 36 b1 0c be
       -0.16313772 0.04526256 -0.13751125 -0.13739476
000390 b4 81 37 bd c3 cc 24 be e9 ba d0 bd 28 37 e7 bd
       -0.04480143 -0.16093735 -0.101919 -0.11289817
0003a0 79 f9 22 3e a6 4d 64 bd 60 d1 24 3d 28 3d 84 3d
       0.15915479 -0.055738114 0.040238738 0.06456977
0003b0 b4 66 4c 3d e9 9c 87 bd 80 a7 bb 3c 47 04 02 be
       0.049902633 -0.06621725 0.022907019 -0.12696944
0003c0 ee a1 13 be 4b f6 11 3e 00 a0 a9 38 06 6a a3 3d
       -0.1441724 0.1425411 8.08835e-05 0.07979207
0003d0 9b fb 9a bd 4d a7 de bd f8 a0 46 3d 12 9a f1 3d
       -0.07567521 -0.10871754 0.048493356 0.11796965
0003e0 0c 31 28 be 1f 61 2e 3e 71 e4 24 be fc 7b 50 3d
       -0.1642496 0.17029236 -0.16102768 0.05089949
0003f0 17 ce 15 be 3c a2 06 bd 82 a7 13 be 5e 22 df 3d
       -0.14629398 -0.032869563 -0.14419368 0.10895227

sequential/conv1d/BiasAdd/ReadVariableOp/resource f4 [32]
000000 00 00 00 00 00 00 00 00 00 00 00 00 00 00 00 00
       0.0 0.0 0.0 0.0
000010 00 00 00 00 00 00 00 00 00 00 00 00 00 00 00 00
       0.0 0.0 0.0 0.0
000020 00 00 00 00 00 00 00 00 00 00 00 00 00 00 00 00
       0.0 0.0 0.0 0.0
000030 00 00 00 00 00 00 00 00 00 00 00 00 00 00 00 00
       0.0 0.0 0.0 0.0
000040 00 00 00 00 00 00 00 00 00 00 00 00 00 00 00 00
       0.0 0.0 0.0 0.0
000050 00 00 00 00 00 00 00 00 00 00 00 00 00 00 00 00
       0.0 0.0 0.0 0.0
000060 00 00 00 00 00 00 00 00 00 00 00 00 00 00 00 00
       0.0 0.0 0.0 0.0
000070 00 00 00 00 00 00 00 00 00 00 00 00 00 00 00 00
       0.0 0.0 0.0 0.0

sequential/dense/MatMul f4 [4, 464]
000000 b8 26 34 bd 2a ce 0d 3d 6b 74 66 bd 38 10 e7 bd
       -0.043982238 0.03462044 -0.05626337 -0.1128239
000010 44 5a ff bc 21 d3 94 3d 9a ce 45 bd 14 80 66 bd
       -0.031170972 0.07266832 -0.048292734 -0.05627449
000020 63 ce e2 3d fc 95 07 bd a4 ea c7 3c c2 ec 09 3d
       0.110745214 -0.03310202 0.024403878 0.033673055
000030 c4 d5 f5 3c e9 43 e7 3d 60 98 47 bd 1c 9d ef 3c
       0.030009158 0.1129225 -0.0487293 0.02924972
000040 45 cc bd 3d 25 24 de 3d 59 f9 93 bd 06 42 69 3d
       0.09267477 0.10846738 -0.07225294 0.05694773
000050 62 29 5d 3d 80 66 33 bc 6e c9 4e 3d 91 61 b0 3d
       0.053994544 -0.010949731 0.050485067 0.08612359
000060 2a d5 e7 bd 32 ef 8d bd 48 f1 ab bd cf eb d1 3d
       -0.11319955 -0.069303885 -0.0839563 0.10250055
000070 50 d0 35 bd e6 03 30 bd 7a 94 70 3d 3f af a6 bd
       -0.044388115 -0.042972468 0.05873535 -0.08138894
000080 57 e9 8e 3d f0 58 33 3c aa 3a d3 bd 74 ca 98 bc
       0.069781 0.010946497 -0.10313924 -0.018651225
000090 29 a8 9e 3d b5 33 8a 3d 8d ca 9a 3d d5 4c 85 3d
       0.07746918 0.067481436 0.07558165 0.06508795
0000a0 5d 3f d3 3d c8 29 c7 bd 31 9f df 3d 60 6b 63 3b
       0.1031482 -0.09724766 0.10919035 0.0034701452
0000b0 6a d1 3b 3d 20 57 44 bc 7a 6b dc bd 4d 3d ae 3d
       0.04585401 -0.011983663 -0.10762687 0.08507786
0000c0 4d 4e 52 bd 59 bf d8 bd fc 84 99 3c 70 d2 8a bc
       -0.051344205 -0.10583372 0.01874017 -0.016946048
0000d0 f4 08 e3 bd e0 2b e2 3b 8e aa 9e bd e0 02 35 3c
       -0.11085692 0.006902203 -0.077473745 0.011048049
0000e0 2d 33 e1 3d c0 b2 d6 bb d8 8c 02 bc b3 4f 69 bd
       0.10996089 -0.0065520704 -0.00796815 -0.056960773
0000f0 ba 4c 41 bd 85 b5 a8 3d fa b5 86 bd b1 3c c0 3d
       -0.047192313 0.08237747 -0.06577678 0.09386576
000100 00 f6 89 ba 2e d7 78 bd 64 73 4f bd 75 4a 61 bd
       -0.0010525584 -0.060752086 -0.050647154 -0.05500265
000110 f8 9d 12 bc 0c 64 d2 bc fe e9 c2 bd 37 15 cc bd
       -0.0089487955 -0.025682472 -0.09517287 -0.09964984
000120 ba cc c8 bd fd e3 bc 3d 18 78 1a 3c 6d af a0 3d
       -0.098046735 0.09223173 0.009428047 0.0784596
000130 56 bc 03 3d 44 c6 e0 bc c4 b6 a7 3c cf dc 88 3d
       0.032162033 -0.02743829 0.020472892 0.06682741
000140 04 f9 43 bd 20 dc ec bb 90 a7 bb bb 9a 7d 7e 3d
       -0.0478449 -0.0072283894 -0.005726762 0.0621315
000150 07 f9 e3 3d 00 d0 5d b9 c2 55 e4 bd b8 48 79 3c
       0.111314826 -0.00021153688 -0.111491695 0.015215091
000160 7d 99 b2 3d df 12 88 bd a1 df ae 3d 03 cc d4 bd
       0.08720682 -0.066442244 0.085387476 -0.10390475
000170 9f 52 c4 3d aa 5e 18 bd da 7f d4 bd ca 80 dd bd
       0.09586071 -0.037199654 -0.10375948 -0.1081558
000180 e0 3c 0b 3c 68 38 9a bd 32 a8 67 3d 8c 9c bd bc
       0.0084984 -0.0753029 0.056556888 -0.023145936
000190 57 ce 87 bd 74 cc e1 bd 29 9a 94 3d c4 90 1c bd
       -0.06631153 -0.110253245 0.07255966 -0.038223997
0001a0 32 28 7c 3d 40 44 ee 3a 8e 48 4a 3d 3c 84 12 bd
       0.06156177 0.0018178299 0.0493856 -0.03577064
0001b0 55 6e d6 bd 92 02 22 3d c1 03 d6 3d a8 18 52 3c
       -0.10470263 0.039553232 0.10449935 0.012823261
0001c0 e0 bb 14 3c 48 fc 4d 3c 72 de 33 3d 88 7a 4c bc
       0.009077996 0.012572356 0.043913312 -0.012480386
0001d0 41 4f 8c 3d 64 96 89 bd 3a 53 9c bd 00 50 88 bd
       0.06851054 -0.06718138 -0.07633062 -0.06655884
0001e0 3c d6 c6 bd 12 96 05 3d d9 f7 a5 3d de 98 12 3d
       -0.09708831 0.03261382 0.08103914 0.035790317
0001f0 31 ca a0 bd e0 fb 98 bc b2 ba c1 bd 8d 95 bd 3d
       -0.07851065 -0.01867479 -0.094594374 0.0925704
000200 6e 61 ba bd 38 80 b4 bc 15 ee e3 3d 8f 86 d9 3d
       -0.091006145 -0.022033796 0.11129395 0.10621368
000210 66 a0 0f 3d 02 49 4a 3d fe 93 52 bd 40 12 a4 3b
       0.035065077 0.049386032 -0.051410668 0.0050070584
000220 cc 16 96 3c d8 18 7d bc c2 e9 82 bd 7e 27 c2 bd
       0.018321417 -0.015447818 -0.06392242 -0.09480189
000230 3f 27 e3 3d 90 31 19 bc d4 bf c4 bd eb 13 86 3d
       0.1109147 -0.0093501955 -0.09606901 0.06546768
000240 0a 8d 13 3d d5 73 ad 3d b1 f6 a4 bd 7e ee 76 3d
       0.036023177 0.08469359 -0.08054865 0.060286038
000250 9c 25 bf bc 12 69 4e 3d 2d 86 dc 3d 24 c7 9c 3c
       -0.023333363 0.05039317 0.107677795 0.019137926
000260 38 2c 9f bc 3b 70 85 3d 72 91 56 3d 1f f7 b3 bd
       -0.019430265 0.06515547 0.0523848 -0.08787369
000270 9c 3f f3 3c 5f 60 c9 3d 9c 72 51 bd b8 3b 6e 3c
       0.029693417 0.098328345 -0.05113469 0.014540605
000280 6e 71 a5 bd 96 68 58 3d eb cf ae 3d bc 60 c8 bc
       -0.080782756 0.052834116 0.08535751 -0.024460189
000290 a2 7b 49 3d 1a fd 0e bd 7a 3a 59 3d a8 d8 26 3c
       0.04919017 -0.034909345 0.053034283 0.010183491
0002a0 21 6f d5 3d f5 4a d2 3d 99 0d d1 3d e7 49 a3 3d
       0.10421587 0.10268203 0.10207672 0.0797308
0002b0 90 95 b7 bd ef a4 b5 3d 9c 90 cc 3c a8 8e 65 bc
       -0.08964074 0.08869349 0.024971299 -0.014011063
0002c0 f4 d5 f7 bc 70 de 76 bd 13 93 98 3d e4 52 c4 bd
       -0.030253388 -0.060270727 0.07449927 -0.09586123
0002d0 48 c0 50 3c 08 e6 b6 bc 6c 9b d2 3c 5e b0 ac bd
       0.012741156 -0.022326484 0.025708877 -0.08432077
0002e0 9b 3a a0 3d ab d7 67 bd a6 cc 78 bd 25 21 6e bd
       0.07823678 -0.05660216 -0.060742043 -0.058137078
0002f0 6f 96 d1 bd 97 81 94 3d 60 5c 2c 3c 2c 72 9d 3c
       -0.10233771 0.0725128 0.010520071 0.01921948
000300 d5 67 db 3d ef e5 75 bd 8e 7f 43 3d e8 33 90 bc
       0.10713164 -0.060033735 0.047729068 -0.017602876
000310 fd 7f ba bd 20 05 7a bc cb 45 aa 3d 1e 3f b0 bd
       -0.09106443 -0.015260011 0.08314093 -0.08605789
000320 8c 37 d6 bd 4a 35 1d bd 87 de c8 3d e3 cb db 3d
       -0.104598135 -0.0383809 0.09808069 0.10732248
000330 65 5d bd 3d 00 89 41 3a f1 37 9c 3d e5 6a c0 3d
       0.09246329 0.00073827803 0.076278575 0.093953885
000340 01 17 9c 3d 8c 94 90 bc 9f 6d db bd 0d 8e c8 3d
       0.07621575 -0.017648958 -0.10714268 0.09792719
000350 35 a1 aa 3d 47 ea 5a bd f8 56 92 bd 90 31 45 bc
       0.08331529 -0.05344608 -0.07145494 -0.012035742
000360 df ec d5 bd 98 6c 22 3c e4 32 82 bc 14 78 b6 3c
       -0.1044557 0.009913586 -0.015893407 0.022274055
000370 da 08 30 bd 35 67 8b 3d 1a 16 02 3d 2e d1 6e 3d
       -0.04297719 0.068067946 0.03175936 0.058304958
000380 98 b5 f3 bc 6c 45 fd 3c 00 3f b4 bb 9b e5 c0 3d
       -0.029749677 0.030916892 -0.0055006742 0.09418794
000390 c4 d6 4e bd e0 3f 3e 3c 37 75 e1 3d 1b 46 c7 bd
       -0.050497785 0.011611909 0.11008685 -0.097301684
0003a0 fd fe 79 bd f3 7c e4 bd 65 ab ad 3d 02 0d d9 bd
       -0.06103419 -0.11156645 0.084799565 -0.10598184
0003b0 52 b3 4e 3d c5 c9 de bd af cb d2 3d 72 57 86 bd
       0.050463982 -0.10878328 0.10292756 -0.065596476
0003c0 f7 c8 c8 3d 3f 4f a3 3d 4a 63 5b bd 5b 40 c7 3d
       0.09803956 0.07974099 -0.053561486 0.09729072
0003d0 40 6c 92 3b b2 f6 0c 3d 43 d0 95 bd 46 95 8b bd
       0.004468471 0.034414954 -0.073151134 -0.06815581
0003e0 bc aa 00 bd d9 b6 d1 3d 31 b0 7e bd 18 61 98 bd
       -0.031412825 0.102399535 -0.062179748 -0.07440394
0003f0 08 85 73 3c c1 e9 c6 3d 2b 6a bc 3d 9a dd ac bd
       0.01486326 0.09712554 0.091999374 -0.08440705
